Cobakamera/app/src/main/assets/asl_trial.tflite (tflite, 455176 bytes, 10 tensors)

94970 f4 [25]
00000000: ebb9 a43d 78d0 0b3e a2c9 f0bd 2915 cebd
00000010: 804b f7bc d040 1fbe 5560 4c3d 4379 1d3e
00000020: d7d7 5d3d 801d 86bd f4ec 8bbd a544 1ebe
00000030: 6828 47bd 314b 47bc 6816 1ebe 164a cb3d
00000040: 3823 f9bc 9ac5 b13c 221e 523d 4f4e 313d
00000050: cad0 083e 1cff fdbc efb1 e13d 5c01 473d
00000060: 6aa2 67bd
0.080432735 0.13653743 -0.117572084 -0.1006263 -0.030187368 -0.15552068 0.049896557 0.15378289
0.05416092 -0.065485954 -0.068323046 -0.15455873 -0.04862252 -0.012163923 -0.15438235 0.0992624
-0.030412301 0.02170067 0.05129827 0.04328757 0.13360897 -0.031005435 0.11020266 0.04858528
-0.056551374

94966 f4 [128]
00000000: 380f 983e d340 a23e 426f da3d 317e 8b3e
00000010: 57ba a13d e509 763b 5597 fa3d a1f3 e43d
00000020: e95c bf3d ea2a 023e 14d6 233e d5e5 893e
00000030: a6d4 56bd 9d20 9b3d 67dd a33e 4e1e a03e
00000040: 1417 1c3e e4a4 9a3e 48d9 6fbc 267d 82bd
00000050: c53a e1bc 297f 953e 2fcb 683e b295 063e
00000060: 915b be3c 246a 8f3e b420 643e a834 b33d
00000070: 9a1e cb3d 5f5c 89bd 7010 57bd 657f c73d
00000080: 1d96 6c3e 7045 5a3e deed 283e 9222 383e
00000090: b916 033d a063 c53d 04d9 60bd a46a 04bd
000000a0: aecc f03c 50ba d53d 73b6 303d 054b 4d3d
000000b0: 26e1 eebc 2363 ab3d 2fc0 c03d 718d 933e
000000c0: dd2f b63d d948 94bd 1e05 b0bc f925 9b3e
000000d0: 2c1a ee3d 2cd1 b3bc 7614 bf3d e0d9 1b3e
000000e0: 1759 f13a 6f40 fa3d 844c 383e 0a8c 9e3d
000000f0: 146e c4bb f1f2 2b3e 094a d03e ad3d 0dbd
00000100: b9fc 12bd bafb 113e 600f c83e 9b7b 413e
00000110: b3f8 0f3e f6a8 8fbc ea1c 7dbc 5f34 e73c
00000120: 632c 833e 11f6 a13d c255 a63e c3a9 a43e
00000130: f310 d43d 721f c53d 856b 85bd cce1 393e
00000140: a8ff 4ebc d5fc 97bd 99ea 273c 694e ef3d
00000150: 9eb3 433e d8db 0a3e 2594 32bd 5cb9 ae3e
00000160: 54bf 563d 1027 673e 86e7 39bc a5a1 223e
00000170: d4ed 253e 5d11 d23d 1200 553e 515b 493e
00000180: 8d2e c83d 1235 f33d acf6 71bc 2e53 a2bd
00000190: 903c 3c3e ad71 1b3e 5ea6 8e3e 1576 163d
000001a0: a6ac b93d 5ba6 513e 8ae0 2b3e 54f3 463e
000001b0: 6b77 2e3e 3942 913d a085 b5bc a741 0e3d
000001c0: 2def 22bc 4f80 813e 87a3 2f3e 4daf 5b3d
000001d0: 35e6 fc3b a491 613d 0900 93bd cb40 adbd
000001e0: 6de7 0dbe d925 f6bd 1855 0a3e d947 93bd
000001f0: d272 a33e 398e cd3d b398 403e 8c23 393d
0.2969911 0.31690082 0.10665752 0.27244714 0.0789687 0.0037542519 0.122358955 0.11179281
0.09343893 0.12711683 0.15999633 0.2693316 -0.05244889 0.0757458 0.32004854 0.3127312
0.15243179 0.30203927 -0.014639206 -0.063715264 -0.027493844 0.29198578 0.22733758 0.13143042
0.023237022 0.28010666 0.222781 0.08750278 0.09917946 -0.067070715 -0.05250591 0.097410955
0.23104139 0.21315551 0.16496989 0.17981938 0.032004092 0.096381426 -0.054894462 -0.032328263
0.029394474 0.10435927 0.043142747 0.050120372 -0.029160094 0.08368518 0.09411656 0.2881885
0.08895848 -0.07240457 -0.021486815 0.30302408 0.11626086 -0.021950327 0.093300745 0.15219831
0.0018413392 0.12219321 0.17997938 0.07741554 -0.0059945676 0.16791894 0.40681484 -0.034482647
-0.035885546 0.14256182 0.3907423 0.18894808 0.14059715 -0.017536622 -0.015448788 0.028223215
0.25619802 0.079082616 0.32487303 0.32160768 0.10354795 0.09625138 -0.06514648 0.18152541
-0.012634195 -0.07421271 0.0102488035 0.116848774 0.19111487 0.13560426 -0.043598313 0.34125793
0.05242856 0.22573495 -0.011346703 0.15881975 0.16204005 0.10257218 0.20800808 0.1966374
0.09774504 0.11875357 -0.014768284 -0.079260215 0.18382478 0.15180083 0.27861303 0.036733706
0.09066133 0.20473616 0.16784874 0.1942876 0.17037742 0.07092709 -0.022158444 0.03473058
-0.009944719 0.25293204 0.17152224 0.053633977 0.0077178725 0.055070534 -0.07177741 -0.08459624
-0.13857813 -0.120189376 0.13509023 -0.07191438 0.31923538 0.100368924 0.1880825 0.045199916

94962 f4 [128]
00000000: 3613 983b 063e 0f3c 73bf 7abc 0546 15bd
00000010: 3142 c6bc 3e79 7e3e 2d9d 593e 57ce 09bd
00000020: 7c72 84bc bf98 05bd 0a21 ebbb 9fb5 863d
00000030: aa00 5ebc 2c60 39bd 2f77 fe3d 3c46 8f3d
00000040: 4ca9 ceb6 944f 6ebd b0a4 d23d d885 c13d
00000050: 8c19 41bc 2a65 a2bc a2ac 5cbd fae5 00bd
00000060: 60c5 ccbd cf96 4bbc 9078 2e3e 8d0e bd3d
00000070: 6ab4 ff3d 1a10 80bc 5e66 1e3e ab0d a53c
00000080: 9cad 183e 2a36 053e 515c 30bc 73c0 b73d
00000090: 40e1 563c 3841 203e e623 d2bc 6b85 dcbd
000000a0: 9619 dbbb a938 95bc a639 38bd 337e 1f3d
000000b0: a686 1fbe 4e68 2d3e d8aa c8bc e0a4 fbbd
000000c0: 8c2f 92bd 8d79 d7bd bf44 ab3d bdab cfbd
000000d0: 26d8 04be 276a 413d 3b0e 623e 7b7f f7bd
000000e0: d609 d7bb 0386 903d 664c e7bc e518 8cbc
000000f0: f9b2 333d b15f 32bd cffb b0bc ba30 93bd
00000100: f118 203b 8aa8 4bbc 8612 b2bc 3c2b fdbc
00000110: 198d 0d3e 8c8d c7bc cd45 1e3e 47c9 ebbd
00000120: 52a5 133c c2d7 47bc 2b0d ac3c b580 debc
00000130: 78bf 91bc 780c f8bd b8a3 b5bc fa58 c4bd
00000140: 7b6e 9dbc 1857 4abd 4f10 89bc 102e 0bbe
00000150: bede bdbd 4baf bbbd 3806 9f3d 5310 e2bc
00000160: 5c07 18bb 1acb 4c3c 0165 573d 62f7 ebbd
00000170: c59a 32bd 7368 053e a0e7 b73d 375c 10bd
00000180: 6071 edbc e4ef 453e 0cea 473d d4e9 283d
00000190: ee56 0abd 19eb f7bc 6fe8 91bc 4f38 3e3d
000001a0: 2b81 64bd f70c 9abd 6550 af3b 0cac 5b3d
000001b0: d65f 093e b08d 4e3d 19e7 953c 1555 80bd
000001c0: 9966 033e 892b 363d 0561 0abe 3c11 0b3e
000001d0: 040f b5bd 4ba0 ddbc f229 2dbc 4203 8cbd
000001e0: d2cf 01bc 8294 2dbe bd29 193c d98a 143c
000001f0: 20de b9bb cf6a c1bd ad83 2a3d a9a5 f83d
0.004640962 0.008742815 -0.015304434 -0.03644373 -0.024201484 0.24850938 0.21251364 -0.033644047
-0.016167872 -0.032616373 -0.0071755694 0.0657761 -0.013549963 -0.045257732 0.12425076 0.06995818
-6.158987e-06 -0.05818136 0.10285318 0.09449357 -0.011785876 -0.01982363 -0.053875573 -0.031469323
-0.09998584 -0.012426092 0.17038178 0.09231291 0.12485583 -0.015632678 0.15468737 0.020148119
0.14909977 0.13008943 -0.010764197 0.08972254 0.013115227 0.15649879 -0.025651883 -0.10767635
-0.0066863997 -0.018215494 -0.044976853 0.038938712 -0.15578708 0.1693432 -0.024495527 -0.12287307
-0.07137975 -0.10521231 0.08362722 -0.10140178 -0.12973079 0.047220375 0.22075741 -0.12084862
-0.006562452 0.07056811 -0.028234672 -0.017101714 0.043871854 -0.04354829 -0.021604447 -0.07187028
0.0024428929 -0.01243032 -0.021737348 -0.030904405 0.13823356 -0.024359487 0.15456314 -0.11513
0.009011583 -0.012197437 0.021002373 -0.027160982 -0.017791495 -0.12111753 -0.022172794 -0.095872834
-0.01921772 -0.049399465 -0.01673141 -0.1359179 -0.09271 -0.09164294 0.07764858 -0.027595675
-0.0023197746 0.012499595 0.05258656 -0.11521794 -0.04360463 0.13028125 0.08979726 -0.035244193
-0.028984725 0.19329792 0.04880719 0.04123862 -0.03377431 -0.03026347 -0.017811028 0.04644042
-0.055787247 -0.07522004 0.00535016 0.053630874 0.13415465 0.050428092 0.018298673 -0.06266228
0.12832107 0.044475112 -0.13513573 0.13580793 -0.08840755 -0.027053973 -0.010569083 -0.06836559
-0.007923083 -0.16951182 0.00934833 0.009066307 -0.0056722313 -0.094442 0.041629482 0.12140972

94958 f4 [64]
00000000: a72c 70be c248 393b 378d 89bd bfc7 97bb
00000010: 863e a3bd 5dff 83bc 1c79 4e3e 5b93 92ba
00000020: 69d3 ef3c 538b 323c 96db b3bc 11f4 ef3d
00000030: e9a7 3c3d 638d efbc f673 edbd c256 f73d
00000040: 1c27 78bd 1edb 8d3e f08f 30bc d316 3fbd
00000050: 62ee 0f3e 99d3 423d 81aa 0abe e846 4c3d
00000060: 833b 2f3d 8b72 d73d 141d 98be e93b 4abd
00000070: 36bc 9d3e 1cef c6bc 175f b7bc 72de 88bd
00000080: 8455 21be 3486 a23e db4c 9ebd 189c 4ebd
00000090: 62bf 533e d6c2 5ebd af05 b4bd d906 8dbd
000000a0: ae93 1fbe f797 7c3e 3819 ba3d 0d99 f23d
000000b0: f864 d4bc 7cd9 72bd f95f 99bc 2af7 d7bc
000000c0: c347 6bbd 9802 2d3e 8951 4c3d fbc6 5dbd
000000d0: 8dc6 e5bd b5ae 4f3d 68b2 07bd 1041 9fbd
000000e0: b1c6 f73d c1f7 d1bc a55b 40be 9a8c 9fbd
000000f0: 6c35 ebbd 346a 8dbc d7c1 85bc 3407 00bd
-0.23454534 0.0028272127 -0.06716388 -0.004631966 -0.0797091 -0.016112978 0.20163387 -0.0011182831
0.029275613 0.010897475 -0.021955293 0.11716474 0.04605857 -0.029242223 -0.115943834 0.120770946
-0.060584173 0.27706236 -0.010776505 -0.046652626 0.1405578 0.047565077 -0.13541605 0.04987231
0.042781364 0.10519894 -0.29709685 -0.04937354 0.30807656 -0.024283938 -0.02238421 -0.06683053
-0.15755278 0.31743014 -0.07729503 -0.05044183 0.20678475 -0.05438503 -0.087901466 -0.06886072
-0.15583679 0.24667345 0.09086841 0.11845598 -0.025927052 -0.05928944 -0.018722521 -0.026362974
-0.057441484 0.1689552 0.049882445 -0.05414484 -0.11219511 0.050703723 -0.033129126 -0.077760816
0.12098444 -0.025630834 -0.1878496 -0.077904895 -0.11484799 -0.017262556 -0.016327782 -0.03125687

94954 f4 [32]
00000000: 76a4 e53c 45b5 07be 0200 3f3c 106c abbc
00000010: f958 05be e102 3abe 639d 47be e9f2 7b3d
00000020: a773 a4bd 29f5 103b 59c9 ccbc c662 81be
00000030: 5746 13bc 2ea3 0cba 3a2c dfbd efbb 94bc
00000040: 2219 b83c 47cd c6bd b6af a7be 8a03 4fbd
00000050: d569 84be 7fc6 ddbd c669 bbbe 5e33 d9bc
00000060: 7c00 4fbe 065e 963c a5ee c73c 743e 81bc
00000070: c4eb 633d 9043 a5bc 9804 c4bc 686a 91bc
0.028032523 -0.13252743 0.011657717 -0.020925552 -0.13022222 -0.1816516 -0.19493632 0.061510954
-0.080298714 0.0022118783 -0.024998354 -0.2527067 -0.008988938 -0.0005364892 -0.108971074 -0.01815602
0.022472922 -0.09707122 -0.32751244 -0.050540484 -0.25861993 -0.10828876 -0.36604136 -0.026513752
-0.20215029 0.01835538 0.024405787 -0.01577685 0.055644765 -0.020173818 -0.023927972 -0.017750934

MatMul;StatefulPartitionedCall/StatefulPartitionedCall/StatefulPartitionedCall/dense/StatefulPartitionedCall/MatMul f4 [128, 128]
00000000: 86dd 14bd 2aed 333e 0793 9d3d 932d 18bd
00000010: c8e4 103e 88aa 68be 4b1f 243b 490e 56bd
00000020: dff0 e93d 7657 a93e 4d8f 3e3d 4dae 97be
00000030: 159c 003e 6aac e0bc bd82 893e 1e5f 1e3e
00000040: 8b26 553b d15e 123e e9b9 c3bd 333d 0f3e
00000050: 1592 553d d169 79bd b73a bb3d c3f8 0d3e
00000060: a7e9 c2bd eb53 4cbd e16a 04bd 3148 db3c
00000070: 1f51 733e 9b92 133e 046f 933e bbf5 efbd
00000080: 543e ddbd 1fa6 283d c462 2a3e 5dd7 733d
00000090: 6917 0fbe cfba 8b3d 7d07 90bd 0c9b 05be
000000a0: aa2b 3dbc be07 8b3d 3132 143d 8f32 8abe
000000b0: 324f 363e 4fab c53d ffd4 563e 96db cd3d
000000c0: c713 81bd 38d3 8f3d aea8 bcbe 0941 b0bd
000000d0: 859d 333c bca2 393e 5565 0ebe 7b1b 04bb
000000e0: d386 a03d 07eb b53d 69d5 843d cb34 f53c
000000f0: 3816 b53e 0712 e03d 8361 21be 5e69 3b3d
00000100: f1b2 ce3e fe73 3dbd c7ef c43c 87f1 c3be
00000110: af31 46bc 6424 ccbd 2a32 903d 6ce6 2d3e
00000120: cb45 8a3e 6d02 9cbd 64c7 aebe d31f 10be
00000130: 80de cebc 2966 acbd c793 cf3d 8100 d9be
00000140: 283d ed3c 4564 f23d 27c9 e6bb e23b a63e
00000150: cc35 04bd 6cfe c7bd 2358 403e fff3 093e
00000160: 05f5 613d a3e8 82be 4048 483e 0c58 7c3e
00000170: b7aa d93c 70ad b73e 0ab7 75be d4a3 a6bd
00000180: c086 c23c 2e65 85be d15b 92bd 9e3f 22be
00000190: 8f4c bdbd a753 193b 04b1 13be e513 cfbd
000001a0: 5181 2f3d c1a9 843e 252d 75be 9a70 69be
000001b0: 4c6a 98be 21f6 4f3e e731 803e beae 1c3e
000001c0: 8ab8 5abd 7db6 83bc 24c1 703d 005a 983e
000001d0: 9693 c3bd 4d53 ee3e 6d3a 813e 2d64 2cbe
000001e0: 8717 07be 0751 993c 7669 2fbe 83b4 a33d
000001f0: 5892 a6bd 59a8 c8be ab00 4dbc bd34 7d3d
00000200: d7ae 9d3d a355 483e da8b 873d 67b5 c3bd
00000210: 659f 15be da05 90be 8dcd c63e 5280 20bc
00000220: 1050 3d3e 1edb 143d 4e44 e33d 6b93 543e
00000230: 4b3b c1bd 5a2a fb3c 7e81 103e 260a d63d
00000240: 9e84 033e 5474 a53c c569 d53d 6731 703e
00000250: a893 1abd 1fbe d63d 1c7b 473e c80e cbbd
00000260: 680f 2c3e 0215 9e3d c339 b3be 4a2f 2a3c
00000270: ebca 153e 45f5 60bc 040f 843d 867b 3d3e
00000280: 684f 08be 067a 993d 356f 933e 1c58 433d
00000290: 7419 c73c 7248 3bbe 9ab8 003d ba77 6ebe
000002a0: 525a d83d f7ce 533d 465c 9e3c f276 f73a
000002b0: 61ca 36be 8f9d 0f3e e69d 903e a464 0dbe
000002c0: 0bc5 05bf 3c42 ef3d 4f49 adbe cea6 02bd
000002d0: 0e27 cbbd c097 18bd 61c4 9a3d d2d1 c63d
000002e0: de80 f13d 1a7a 943e 97b4 b7bd e19c 7b3d
000002f0: 4905 a03e 95ab 0abe e26b a83d 674c 853e
00000300: b1c9 0cbd e1c8 f7bd d405 e63d 63c0 aabc
00000310: 87fd d83d 369c f93d 2f0e 373e c698 42bd
00000320: 4d39 a4bd ad4e 843d 0059 053d a1bd 6dbd
00000330: b025 c0bd 87fd df3d 38b5 f3bd 50a9 01be
00000340: 1b89 0ebd ea70 9cbe 4c49 223d 99de e1be
00000350: 0928 10bf f547 98be eac8 22bd 593e acbd
00000360: c0a1 793e 643b 323e 8e7e 8c3e 3565 17bf
00000370: f8ec f43b fd13 89bd af3f 863d 68b6 f83c
00000380: cc1b e8bd 953a c3bd 814d babd 50e2 82bc
00000390: 9418 1e3d 15b1 963c ee1c e0bd 9abc 603e
000003a0: 5236 0b3e 2ce9 e7bc 144e 073e ab6a 81be
000003b0: 9b4c b7be 30f8 253e c67c f6be 1f40 1c3e
000003c0: 4aad 05bd e6c9 413e a4d4 c13e a691 303b
000003d0: 1ea3 a33d 305b c33e 4009 ac3e 2a63 7dbe
000003e0: 2168 bd3c 2cfa 92be cd92 6b3e 3998 84be
000003f0: a3fc 543d abf5 adbe 49a1 153e f9f2 0dbe
-0.036344074 0.1757094 0.07694059 -0.037152838 0.14149773 -0.22721303 0.0025043066 -0.052259717
0.11422896 0.3307454 0.04652338 -0.29625168 0.1255954 -0.027425963 0.26857558 0.15465972
0.0032524194 0.14293982 -0.09556944 0.1398819 0.052141268 -0.06089193 0.09142058 0.13864426
-0.09517222 -0.049884718 -0.03232849 0.026767822 0.23761414 0.14411394 0.28795636 -0.11716791
-0.10802904 0.04117405 0.16639239 0.05953156 -0.13973774 0.0682274 -0.07032678 -0.13047427
-0.011546055 0.06788586 0.03618068 -0.26991698 0.17803648 0.09651815 0.20979689 0.10051648
-0.063026 0.07022709 -0.36847442 -0.086061545 0.010962849 0.18128484 -0.13905843 -0.0020157981
0.07838216 0.088827185 0.06486017 0.0299324 0.35368514 0.109409384 -0.15759854 0.045754783
0.40370896 -0.046253197 0.024040116 -0.38270208 -0.012096806 -0.099678785 0.07040818 0.1698243
0.27006373 -0.0761765 -0.34136498 -0.1407464 -0.02525258 -0.08417923 0.10135608 -0.42383197
0.028959826 0.11835531 -0.007043022 0.32467562 -0.032277867 -0.09765324 0.18783621 0.13471983
0.05516531 -0.25568113 0.19558811 0.24642962 0.026570661 0.3587451 -0.23995605 -0.081367165
0.023745894 -0.26053756 -0.07146419 -0.1584458 -0.09243118 0.0023395808 -0.14422995 -0.101112165
0.042847935 0.25910762 -0.23943003 -0.2279686 -0.29768598 0.20308734 0.25038072 0.15301034
-0.053398646 -0.016078228 0.058777943 0.29756165 -0.09549634 0.46547928 0.25239888 -0.16835089
-0.13192569 0.018715395 -0.17130074 0.07993414 -0.081333816 -0.3919094 -0.012512366 0.061817873
0.07699364 0.19563918 0.066184714 -0.09556084 -0.14611585 -0.28129464 0.38828698 -0.009796219
0.18487573 0.03634178 0.110970125 0.2075936 -0.09435137 0.030659843 0.14111897 0.104511544
0.12843558 0.020197071 0.104205646 0.23456345 -0.037738472 0.104854815 0.19480556 -0.09914929
0.16802752 0.07718851 -0.35005006 0.010387251 0.14628188 -0.013730352 0.064481765 0.18504152
-0.13311541 0.07493977 0.28795782 0.04769145 0.02430413 -0.18289354 0.03142605 -0.2328786
0.10564102 0.05171105 0.019331109 0.0018880053 -0.17850639 0.14024948 0.28245467 -0.13807923
-0.5225379 0.11682555 -0.33844993 -0.03189736 -0.099195585 -0.037254095 0.075569876 0.09707989
0.117921576 0.28999406 -0.08969992 0.06142891 0.31254032 -0.13542016 0.08223702 0.26034853
-0.034372035 -0.120988615 0.112315804 -0.02084369 0.105952315 0.12187998 0.17876504 -0.047508977
-0.08018742 0.06460319 0.03255558 -0.058042172 -0.09382188 0.109370284 -0.11899799 -0.12662244
-0.034798723 -0.30554897 0.039620683 -0.4411514 -0.5631109 -0.297424 -0.039742388 -0.08410329
0.24378109 0.17405468 0.27440304 -0.59138805 0.007474538 -0.066932656 0.065551154 0.030360416
-0.11333427 -0.09532658 -0.09096814 -0.015977055 0.03859766 0.018394986 -0.10943018 0.21946946
0.1359494 -0.028309427 0.13213378 -0.25276694 -0.35800633 0.16207957 -0.4814207 0.15258835
-0.032635964 0.18924674 0.37857544 0.0026942282 0.079900965 0.38155508 0.33600807 -0.2474486
0.023120942 -0.2870649 0.23005219 -0.25897387 0.051998746 -0.33976492 0.14612307 -0.13862218

MatMul;StatefulPartitionedCall/StatefulPartitionedCall/StatefulPartitionedCall/dense_1/StatefulPartitionedCall/MatMul f4 [25, 128]
00000000: f0fc d6bc ace1 efbe cd2c 933d 2ea1 b1be
00000010: bcf1 a13c 3de0 b3be ab34 b6bc 967e 143d
00000020: 0345 30bd c58d 8b3e 35ca 9f3e e2e6 2bbe
00000030: 0822 5fbe f0ad 1a3e bdff 74be 5641 2ebd
00000040: 6856 3fbe f6c9 103e 7fa8 98bd 6dad 69be
00000050: bd89 bf3d 875d 983e 0d37 2f3e 62ef d8be
00000060: d8c7 95bd 56b4 20be a636 273e 0e1b 4f3e
00000070: 30bc 6fbe 2865 d13b 1a8f ae3d 8aa3 6bbd
00000080: b25e 0fbd 1d3f e1bd 47a0 19be 3374 3f3e
00000090: e720 4b3e 46db 0abe 97af 2bbe 23ae 91be
000000a0: a1cb 013e 2ae5 aebc 8e06 163e d9d6 353e
000000b0: 4084 1ebe fcfa 90bd 50a1 47be 1892 96bd
000000c0: 4385 2ebe a1bc 85be ec0a 66be 0c03 b0bd
000000d0: 6edd 193e e95f 003d ced1 15be 4656 533e
000000e0: 5eb5 bfbd 4bba 8b3d a3c1 1cbe 3cec ad3d
000000f0: c60d 0dbe fbec 09be e1fd 0fbf d162 adbe
00000100: 344c 80be 0230 083b 1b0e 29be e19b 073e
00000110: 68d1 bdbe 872b d4bd 9ec5 5a3e bdab 45bd
00000120: 1e40 613e 2491 05be 142a 733e 7e1b 1d3e
00000130: 122c 84be ec2a cb3d 99db 59bd 083a cb3d
00000140: f0a6 78be 4079 5a3e 06bd 3c3d 1fdd be3c
00000150: 985f b0be e803 67be b9bf 90be 72e6 16bd
00000160: cbdf 5e3e 2130 3d3c 1467 683e d752 263e
00000170: 0948 24bc e7d2 74be 8aa3 ccbe 9f14 17be
00000180: 6baf 2abd 6d9c f3be 8cca 8ebb c610 f8bd
00000190: 3fb7 dbbe 1609 e03d 3503 9fbe bde6 313e
000001a0: 1285 28be 8e0e 473e 5cb2 a4bd d5a4 18be
000001b0: 198a 91be 14d5 c9be f3c0 fdbd 9847 5c3e
000001c0: b447 973d 6ee2 893e cb46 0bbe 5993 d4be
000001d0: 7397 7abe c4f9 cc3c 91c4 4a3e c75a 5c3d
000001e0: 5291 c0be 7d3b dcbd d2b4 623d f1f7 a9bd
000001f0: 8383 e5bd 5f63 053e 5978 de3d 7ad4 023e
00000200: cb5b 37be 054d 9cbc b0a3 3abe 7d53 3b3c
00000210: eb8d 2abf dd1e c3be 4093 cfbd b729 9b3d
00000220: 6cd3 1bbe 9fbe 21be 8105 e5be 7ee7 443e
00000230: c03d 423e 32e5 f0bd 4b36 e43c 54f2 c43e
00000240: bb7c 70be 2ab2 62be 67cc 173e e1dd 4b3e
00000250: d309 2dbd f4fd 6c3e c42f 993e aab6 3b3b
00000260: 4028 3fbc bd74 1c3d 4f11 4bbc 6c4b 213e
00000270: d6cf a0bd 77d0 36be 5d76 5cbe 21dd 123e
00000280: c3d2 963e d89d 143e 1265 b8be 106e acbe
00000290: e78e 063e df32 e8be a73f d2be 01df 293e
000002a0: 7834 40bc 6949 a4be d8ea 813b b22d 6cbd
000002b0: 8424 b23c 7ab1 1c3e d27d 273c 285f 7d3e
000002c0: 3738 17be d8db 0abf d996 963e 06a1 d0bd
000002d0: 6946 16be 5b52 86be a46d 803e 60fe 683d
000002e0: 1393 c03c 4b61 d83d 97fe 023e 4fea 813e
000002f0: e461 313e fbb1 5b3e 709c 52be 716a 5ebe
00000300: 4e2b 47bd c95f 823d be9c a0bd c68f f4bd
00000310: d78f d3be fab1 12be 99ca e33d 14b5 833c
00000320: 476f ec3e e569 013d c8ad 353e bd39 f13c
00000330: 10e2 1f3e ea01 7c3e d240 6a3e baf3 a4be
00000340: 4860 b0be 1079 92be f218 40bd 3087 063d
00000350: 0372 37bd 127a f03d 13d6 a8be db78 6f3e
00000360: 5c9f c3be 386e 2a3d e850 cdbe e665 cabe
00000370: a448 4d3d 93f6 83be d848 683e c06f 8ebe
00000380: b231 e83d a1f3 2d3e d71b 33be 8433 a0be
00000390: ebc5 503e 2ffe ff3d fcc9 b23e 5cbd 19be
000003a0: a8cd 9ebe 885f 38be fbce 8b3c d1b4 ef3e
000003b0: 809a e7bc 8d74 67bc 8a61 663e f7e3 8c3e
000003c0: 80b6 f3be 11b1 a73e 523f 823e 2cb2 efbd
000003d0: 39af 3fbe ff5a 433e baa7 97be 6ef2 32be
000003e0: aaf5 86be 110a dcbc fb56 9abe 58b7 e7be
000003f0: 63ba d5bd 2bb8 14be ecb6 10bf dd12 64be
-0.026243657 -0.4685186 0.071862794 -0.34693283 0.019768588 -0.35132018 -0.02224191 0.036253534
-0.043034565 0.272566 0.3120896 -0.16787294 -0.21790326 0.15105414 -0.23925681 -0.042542778
-0.18685305 0.14139542 -0.07454013 -0.22820063 0.09352443 0.29758856 0.17110844 -0.42370135
-0.07313508 -0.15693793 0.1632944 0.20225164 -0.23411632 0.0063902326 0.08523388 -0.05752901
-0.035002418 -0.10998366 -0.15002547 0.1869667 0.1983677 -0.13560209 -0.16766201 -0.28453168
0.12675335 -0.021349508 0.14650938 0.17757739 -0.15480137 -0.070791215 -0.1949513 -0.07352084
-0.17043023 -0.26120475 -0.22465104 -0.08594331 0.15025875 0.031341467 -0.14630815 0.2063838
-0.09360765 0.06822642 -0.15308242 0.08492324 -0.13774785 -0.13469307 -0.56246763 -0.33864453
-0.25058138 0.0020780568 -0.16509287 0.13243057 -0.37073827 -0.10359865 0.21364447 -0.048259486
0.21997115 -0.13043648 0.2374652 0.15342519 -0.25814873 0.09920296 -0.05318794 0.09923178
-0.24282432 0.21335316 0.046078704 0.023298798 -0.34447932 -0.22560084 -0.28271273 -0.036840864
0.21765058 0.011547119 0.22695571 0.16242538 -0.01002694 -0.23908578 -0.3996852 -0.1475396
-0.041671198 -0.4758028 -0.0043576416 -0.12112574 -0.42913243 0.10939233 -0.31057134 0.17373176
-0.16457012 0.19439146 -0.08041832 -0.14906628 -0.28425673 -0.39420378 -0.12390318 0.21511686
0.07386723 0.26930565 -0.13601224 -0.41518667 -0.24471836 0.025021441 0.19801547 0.05379751
-0.3761087 -0.10753534 0.055348225 -0.08299244 -0.112067245 0.13026188 0.10862798 0.12776366
-0.1790611 -0.019079695 -0.18226504 0.011433479 -0.666228 -0.38109484 -0.101355076 0.07576316
-0.1521737 -0.15795372 -0.44730762 0.19228932 0.18968868 -0.117624655 0.02785792 0.38466132
-0.23485081 -0.22138277 0.14824067 0.19908859 -0.042245697 0.2314375 0.29919255 0.0028642812
-0.011667311 0.038197268 -0.012394263 0.15751427 -0.078521416 -0.1785296 -0.21529527 0.14342166
0.29457673 0.14513338 -0.3601461 -0.3367772 0.1314045 -0.45351312 -0.41064188 0.16588975
-0.0117312595 -0.32087258 0.003964763 -0.057660766 0.021745928 0.15302077 0.010222869 0.2474333
-0.14767538 -0.54241705 0.29411963 -0.10186963 -0.14675297 -0.26234707 0.2508365 0.056883216
0.02350763 0.10565432 0.12792431 0.25374076 0.17322499 0.21454613 -0.20567489 -0.21720292
-0.048625283 0.06365926 -0.07842396 -0.11941485 -0.4132068 -0.14325705 0.11122627 0.016077556
0.46178648 0.03159513 0.17742074 0.029446477 0.1561358 0.24610105 0.2287629 -0.322172
-0.34448457 -0.28607988 -0.04689879 0.03284377 -0.044786464 0.11742033 -0.32975826 0.23385946
-0.3820752 0.04160902 -0.4010079 -0.39530867 0.050118104 -0.2577406 0.22684038 -0.27819633
0.11337604 0.16987468 -0.17491089 -0.31289303 0.20388 0.124996535 0.34919727 -0.15013641
-0.31016278 -0.18005192 0.01706647 0.4681764 -0.028271914 -0.014126909 0.22498146 0.27517673
-0.47600174 0.32752278 0.25438935 -0.117039055 -0.18719186 0.19077681 -0.29620153 -0.17475292
-0.26359302 -0.026860269 -0.30144486 -0.45257068 -0.10435941 -0.1452338 -0.56529117 -0.22272821

Conv2D;StatefulPartitionedCall/StatefulPartitionedCall/StatefulPartitionedCall/conv2d/StatefulPartitionedCall/Conv2D f4 [32, 3, 3, 1]
00000000: 24af 8b3c 1eaf b1bb 1374 01be b042 483e
00000010: 7410 94bd 6d97 4abe c8af 993e a4e1 a1bd
00000020: 8bd2 9cbd d0c0 b5be db2b 8cbe a7f7 7c3c
00000030: 8968 4bbd a624 2d3e a6d4 413e bb74 1c3e
00000040: 550b 2a3e 6fcd 6d3e bc67 3ebd c378 03be
00000050: 2339 5d3e cd84 40be 0279 38be 79d3 5e3e
00000060: f48a f43c 38c1 81bc 5ad7 a73d 275b 6bbe
00000070: efbc 393d 8667 e13d 8888 2bbe 0806 183e
00000080: 154a 023e 968b f1bc ee6b 17bd 552b 023e
00000090: 3808 433c 111e 283e 0a99 923d ae58 173e
000000a0: 9309 de3d 4c2d 8fbd efea da3c 7306 8dbd
000000b0: a5ce 96bd e6c5 d1bc b4e9 f33c 14c1 99bd
000000c0: 90b2 8c3d 90e4 173d e02b 9a3d 8e48 c93d
000000d0: 8f5f 0e3e 4790 f53d c703 42be cd41 b63d
000000e0: 7326 6a3d 0f74 b8bc 634f 693d 912c 883e
000000f0: 7a32 3cbe c656 9f3d 4e26 533e c416 033c
00000100: b696 9b3d 1372 f33d 8517 6cbe 15ff cebd
00000110: acdb 923c bf49 69be 4e6f 86bc 2467 8b3e
00000120: 70f4 cbbe 44c0 7bbe b58e de3c dcda de3c
00000130: a06e c33d 1d44 9dbc 0a0b 523e 6bde 803e
00000140: 4223 853e 64a2 023e cb72 473b ce0a e1bd
00000150: b37b 693e d03d 11be 44df 40be d044 453e
00000160: c4be 16be ea0b ac3c 59a2 5ebe 7fe3 763d
00000170: f8ee 0b3e cf8a d23a d3a4 bcbd 8a1e 2d3e
00000180: 38be bb3d 96e1 3fbe fc2b 0d3e afd0 33bd
00000190: a369 ea3c a112 63bd b28d 58bd 7e18 623e
000001a0: 1cc2 3d3c 63e4 773e b3fa 133e 79ae 67bc
000001b0: f24c b5bd 4807 f7bd b0c1 66bc 90ef 10be
000001c0: 543b 0d3d 0168 06be 54a4 febc 60b5 863b
000001d0: c93e 05be b635 b4bc 46c4 023e 02ad bc3e
000001e0: 9488 b13d 3b61 13be 3689 25bd 5195 4f3d
000001f0: a3dc 95be 371b 04be d104 f83d 3f7c 273e
00000200: 9582 4b3e 33e1 41bd 5238 0a3e c5af 043e
00000210: 0cee 34be 9dcd 28be a958 eabd d395 8d3d
00000220: a973 02be 159f 78be 9269 c33c ea4f 5c3e
00000230: cba9 0dbe 5181 89bc bec8 2b3e 768b 983d
00000240: d195 0bbe 4725 e73c 9c84 6c3d 45ef 0cbe
00000250: f32b 52bd 1937 563e d8fd b1bd 7533 0bbe
00000260: 1242 653e 8981 63be 5165 73be 770a 193d
00000270: cb4e fabc 0904 053e 3df5 1b3e e6d4 663d
00000280: 50f3 5d3e 1c99 4e3e a420 abbe c950 27be
00000290: 6e26 0f3e 67dd 74bb 88f0 fa3d 4dbc 023e
000002a0: 5062 ec3d c149 a23e 0eec 443e 7463 76be
000002b0: a91b a4be 62d4 83be c634 093d 163a 233e
000002c0: 63ce cc3d ca25 623e 2d85 4e3e 6a19 5c3e
000002d0: 12ca 30bd 55cf a53d 7cc3 20bd 72f1 e13d
000002e0: 81a7 1ebd 0f49 333e bdf1 733d 6481 353e
000002f0: a61b 8b3c 138f 333e 546b 1c3e a706 c73d
00000300: 6d00 273e 0f0b 36bc a215 3bbd f852 1c3d
00000310: 55d8 3ebe cc82 26be 27d6 b2bd dff4 243c
00000320: c631 663e f3f0 0fbe 8d2e f73d 67be 173e
00000330: cbd6 a93d 2b0a 743e b2b4 24bd 1a48 6a3d
00000340: 6ee6 8b3d ab7d 6cbe 00cd d03c 3dd4 0a3e
00000350: fc4d 4bbe a335 123e 0041 693e dbd8 42be
00000360: 27bf a0be 7fdc 73bd 941d 5c3e 27c0 82be
00000370: 1db9 2a3e 07b6 1c3e b1ff 873c f5ce 783e
00000380: 8003 333e 2c1e 3c3e f0b7 7b3e eabd c93d
00000390: 1924 8dbd 0731 66bd 770b 10be fcd8 1abd
000003a0: 4d4f a33d 7c03 a5be 77d1 47be d309 80bd
000003b0: 953f e5bd 7a7b 17be 4d5d 2f3e a972 303e
000003c0: 40f9 14be ba80 793e af88 3f3d c984 f0bd
000003d0: ed90 44be 95c2 86be f691 273e a0e1 263d
000003e0: 6549 37be adef 5a3e aab1 533e ecfd 133e
000003f0: fc39 0f3e 7e84 143e 43b4 013d 210a 6c3d
0.017051287 -0.005422487 -0.12641935 0.1955669 -0.07229701 -0.19784327 0.30016923 -0.07904366
-0.076573454 -0.35498667 -0.2737721 0.015439904 -0.04966024 0.16908512 0.18928775 0.15278904
0.16605885 0.23222898 -0.046485648 -0.12839036 0.21603827 -0.1880066 -0.18014911 0.21760358
0.029851414 -0.015839204 0.08195372 -0.2298399 0.045346197 0.11006074 -0.16751301 0.1484605
0.12723573 -0.029485505 -0.036968164 0.12711842 0.011903815 0.1641772 0.07158096 0.14779922
0.1084167 -0.069910616 0.026723353 -0.06885996 -0.07363633 -0.02560706 0.029774524 -0.0750753
0.068699956 0.03708321 0.075279 0.09828292 0.1390364 0.11990409 -0.18946753 0.08899269
0.057165574 -0.022516279 0.056960475 0.265965 -0.1837863 0.077802226 0.20620081 0.008001033
0.07597105 0.11886992 -0.23055847 -0.10107247 0.017927013 -0.22782038 -0.016410496 0.27227128
-0.3983493 -0.24585062 0.027167657 0.02720397 0.095425844 -0.019197518 0.20512024 0.2516969
0.26003462 0.1275726 0.0030433412 -0.10988389 0.22801094 -0.14183736 -0.18835169 0.19264531
-0.14721209 0.021001775 -0.21741618 0.06027555 0.13665378 0.0016063097 -0.09211125 0.16906181
0.09167141 -0.18738398 0.1378631 -0.043900188 0.028614825 -0.055437688 -0.052869506 0.22079656
0.011581924 0.24208216 0.14451103 -0.014140719 -0.08852567 -0.12061936 -0.014084265 -0.14153886
0.034480408 -0.13125612 -0.031084217 0.004110977 -0.13012232 -0.021998268 0.12770185 0.36850744
0.08668628 -0.14392559 -0.040414058 0.05067951 -0.29269895 -0.12901007 0.12110294 0.1635599
0.19874032 -0.047333907 0.13498047 0.12957676 -0.17668933 -0.16484685 -0.11442692 0.06913342
-0.12739433 -0.24279435 0.02385405 0.2151486 -0.13834302 -0.016785296 0.16775796 0.07448475
-0.13631369 0.028216017 0.057743654 -0.13763149 -0.051311444 0.20919456 -0.08690995 -0.13593848
0.22388485 -0.22217382 -0.23769118 0.037363496 -0.03055515 0.1298982 0.1523027 0.05635538
0.21674848 0.20175594 -0.3342334 -0.16339411 0.13979504 -0.0037363411 0.12252909 0.12767144
0.11542189 0.31696895 0.19230673 -0.24061376 -0.32052353 -0.25747973 0.033497594 0.15940127
0.10000303 0.22084728 0.2016799 0.2149407 -0.04316146 0.08096186 -0.03924893 0.1103238
-0.038733963 0.17508338 0.05955671 0.1772514 0.016980957 0.17535047 0.15275317 0.09718066
0.16308756 -0.011111035 -0.045674928 0.038165063 -0.18637212 -0.16260833 -0.087322526 0.010068147
0.22479925 -0.14056759 0.12069426 0.14818726 0.08292922 0.23832004 -0.040211387 0.057197668
0.0683106 -0.23094814 0.025488377 0.13557525 -0.19853967 0.14278273 0.22778702 -0.19028036
-0.31395838 -0.059536453 0.21495658 -0.25537226 0.16672178 0.15303813 0.016601415 0.24297698
0.17481804 0.18370885 0.24581885 0.09850676 -0.06891651 -0.0561991 -0.14066873 -0.03780459
0.0797411 -0.3222922 -0.19513498 -0.06251874 -0.11193768 -0.14793196 0.17125435 0.1723124
-0.14548206 0.24365512 0.04676121 -0.11744077 -0.1919591 -0.2632033 0.16364273 0.040742517
-0.17899092 0.21380492 0.20673242 0.14452332 0.13986963 0.14503667 0.03166605 0.057626847

Conv2D;StatefulPartitionedCall/StatefulPartitionedCall/StatefulPartitionedCall/conv2d_1/StatefulPartitionedCall/Conv2D f4 [64, 3, 3, 32]
00000000: 8bfe e3bd 0eb8 56bd 608e c13c 0f47 dfbd
00000010: b6d5 f3bd 0d32 a6bd c5f1 cebc 2a02 15be
00000020: d458 53bd 2d76 58be eb93 acbd 9989 25be
00000030: d01f 9a3b 798d dbbd c0ab 0abe 0047 43be
00000040: c2cb f0bd ac67 5dbd f64f 04be 3ae6 2fbc
00000050: 2784 d9bc bacf 65bd e912 58bd 9704 35be
00000060: 4219 b1bd b2f3 2dbe 6859 7dbe 10dc 06be
00000070: 56bd 45be d4e9 5abe f671 a53a e308 71be
00000080: fdbb 75be a327 033d 8f6e 05bd 1d28 d73d
00000090: 1867 9b3d 3a0e dbbc 9eb4 753d f67c 93bc
000000a0: e8ea 3c3d 69fd 94be c955 293c d2bd 273c
000000b0: e678 49bd 8609 833e a788 623d 6315 70be
000000c0: 3c76 f83d 36e3 d73d 378d 2b3e 7570 193e
000000d0: cdd7 bf3b 6c86 fd3b ba07 3f3e 6750 97be
000000e0: c4ad 323e b94a b5bc 2bc9 e03d 8c07 73be
000000f0: fb18 d7bc fb72 2fbe bced e73d ad93 9bbe
00000100: 5258 a8bc 6d27 cfbc 490f b4bd be73 45be
00000110: 6bc2 af3d 5f86 133d d726 0abc 9ada 81bd
00000120: d0eb 8c3d 22b5 e43d 73bc e7bc 9de0 d93d
00000130: 9d45 a93d ef2e a83d 7974 093e 4ff2 473d
00000140: d80a 12ba 0e27 1abc a426 d03d 966a ca3d
00000150: 1af7 d83d ce6a da3d c91e e13b a4e9 3cbd
00000160: b9f4 27bd 922c ad3c 578d a4be 3bad 91bc
00000170: dd1f 023e 4812 583e c875 d9bd 5321 7d3d
00000180: aade bb3d 27f5 60bc e175 3bbe 8054 c1bd
00000190: 07cf b5bd ad92 8abd ef3f 82bd a680 f8bd
000001a0: 12a5 633d d6c2 7cbc ca16 1abe a3b7 0b3d
000001b0: a30b 8d3d 1b29 aabe 02f3 d8bd 78a3 d63e
000001c0: c7f6 babd 9205 7ebc a314 993d 287d 253e
000001d0: ea00 94bd 994d 35be 9507 293d acbd 223e
000001e0: f2f3 19bd eb01 79be 3ce0 8c3d 0a8e 7d3e
000001f0: 29a9 9cbe 7101 e8bd 3e5f 80bd 28dd 1a3d
00000200: bbc5 0f3e 84fa 293d 7b30 49be 277f 8cba
00000210: b56c 4e3c d081 29bd 5e83 a6bd 1cfb b3be
00000220: e2f1 f0bc 2209 563e 2d1f f2bd 7fce 033d
00000230: 469f 60bd afc4 ed3e 0ba8 f03d 1a3e 3f3e
00000240: 3e2a febd 5fd6 86bd 2ec0 c13a 609c 5d3c
00000250: 3645 c3bd 8aba 993d dde4 65bc ca1d 3f3e
00000260: 71b1 83bd 3d2e 4b3e 28fe 35be b7ce 7b3e
00000270: 7d9e 8a3d 74fa 283e 2bde 64be 4c7a 953d
00000280: e467 15bd b77b 68bc 037a 9e3e d5d3 993c
00000290: 7ddf 7abb d958 f1bd 244a 4dbd 0f0f a73e
000002a0: 1853 dbbd 9207 b73d 5586 0c3e 0333 4ebe
000002b0: 7029 92bd fd69 ee3e be33 bc3d 6919 61be
000002c0: a9ea 713e 87f9 96bd f279 abbd 0c25 5cbe
000002d0: 55f4 9ebd 268f a43d 6723 22bd 1e18 1abe
000002e0: 834c d0bd 57ec 543e 2eed 69be 9431 66be
000002f0: 4f5e 643e bdda 023e 542c 613d ba5c a7bd
00000300: e575 dbbd 999d a9bc f7cf 27ba 281b 593d
00000310: 136a 863c 6037 82bd e21e 1c3e 824b df3c
00000320: a8ce 9ebd 53b4 79bd 3b5c c83d 753e 7abc
00000330: ca8f 263d fef6 1e3d 5645 b23c 177e e53d
00000340: b9f6 b53d a8e6 1c3d 1a5b 8e3d 21b3 a3bc
00000350: 736d a83d bf4e 2cbb 9e79 f23d f2e4 263e
00000360: 8723 bc3d b8e2 553d bd0b 343e d6b1 2cbe
00000370: 950d aabd b0a1 1d3d 4154 263e 13b8 d6bd
00000380: eac3 8a3e f9ba 13bd b641 e7be 1490 a4be
00000390: b534 ca3c e279 3f3c 1be6 d4bd 8d94 b4be
000003a0: 41f0 10bd 908f ba3e fb90 d2be 50de 9b3c
000003b0: e853 92bd 0630 e83d 5ab9 e9bd 9f6d ef3e
000003c0: 0d59 aebe f7a8 f9bd 6711 04bb e9ea 003e
000003d0: da11 9dbd fe02 40bc 49ab a33d e263 da3e
000003e0: 8b94 413c fff1 d63d f78d 3bbe 614e b93e
000003f0: 65ce 563e 8dfc 863e d007 7dbe 9cf4 c53e
-0.111325346 -0.052421622 0.02362746 -0.10902225 -0.119059965 -0.08115015 -0.02526177 -0.14551607
-0.051598385 -0.2113883 -0.084266506 -0.1616577 0.0047034994 -0.10720343 -0.1354208 -0.19070053
-0.11757614 -0.054053947 -0.12921128 -0.010736043 -0.026552273 -0.056106307 -0.05275241 -0.17677532
-0.08647396 -0.16987494 -0.24741137 -0.13169885 -0.19310507 -0.21378261 0.0012622464 -0.23538546
-0.23997493 0.032020222 -0.03257614 0.10505698 0.07588023 -0.026740182 0.059986703 -0.018003922
0.04612246 -0.29099587 0.010335394 0.010238128 -0.049187563 0.25593203 0.055306103 -0.23445658
0.121319264 0.10541384 0.16753088 0.14984305 0.005854583 0.0077369716 0.18655291 -0.2955353
0.17449099 -0.022130357 0.1097587 -0.23733348 -0.026257029 -0.17133705 0.11324641 -0.30386105
-0.020549927 -0.025287354 -0.08791978 -0.19282433 0.08582004 0.036016818 -0.008432112 -0.06340523
0.06880915 0.11167361 -0.028288102 0.10638545 0.08265231 0.08212077 0.13423337 0.048815068
-0.0005571074 -0.009408725 0.1016362 0.09883611 0.10594006 0.106649026 0.006870125 -0.046121255
-0.04100487 0.021139417 -0.32139084 -0.017782798 0.12707467 0.21100724 -0.10618168 0.06179936
0.09173329 -0.013730324 -0.18306686 -0.09439945 -0.08877378 -0.067662574 -0.063598506 -0.12133913
0.055577345 -0.015427312 -0.15047756 0.034110676 0.06886985 -0.33234486 -0.10593225 0.41921592
-0.091291 -0.015504258 0.07474639 0.16161025 -0.07226737 -0.17705382 0.041266996 0.15892667
-0.03758616 -0.24317138 0.06878707 0.24761215 -0.3059781 -0.113284 -0.06268166 0.037808567
0.14040272 0.041498676 -0.196474 -0.0010719047 0.01259916 -0.041383564 -0.08130525 -0.3515252
-0.029412214 0.20901921 -0.118223526 0.032179352 -0.054839395 0.4643912 0.11750802 0.18676034
-0.12410401 -0.06583857 0.0014782005 0.013526052 -0.09534685 0.07506283 -0.014031616 0.18663707
-0.06430329 0.19841857 -0.17772734 0.24590574 0.067685105 0.1650179 -0.22350375 0.07298717
-0.03647603 -0.014189652 0.30952463 0.018777767 -0.0038280182 -0.117845245 -0.050119534 0.32628676
-0.10709208 0.08936991 0.13723119 -0.20136647 -0.0713681 0.46565238 0.091895565 -0.2198235
0.23624672 -0.07371812 -0.083728686 -0.21498507 -0.077614464 0.08035116 -0.039584544 -0.15048262
-0.101708435 0.20793281 -0.22844383 -0.2247985 0.22301601 0.12778755 0.054973915 -0.08171983
-0.10715846 -0.020705031 -0.00064015336 0.053004414 0.016408002 -0.06358218 0.15246156 0.027257685
-0.0775426 -0.060962986 0.097832166 -0.01527368 0.04066447 0.03880977 0.021761578 0.1120569
0.08884949 0.03830591 0.0695097 -0.019982876 0.08224001 -0.0026292054 0.11839603 0.16298273
0.09186464 0.05221817 0.17582603 -0.16864714 -0.08303372 0.038484275 0.16243078 -0.10484328
0.27102596 -0.036066983 -0.4516732 -0.32141173 0.024683336 0.011686774 -0.10395452 -0.35269585
-0.035385374 0.36437654 -0.41126236 0.019026905 -0.0714491 0.11337285 -0.11412306 0.46763322
-0.34052315 -0.121904306 -0.0020151974 0.12589611 -0.076694205 -0.011719463 0.079916544 0.4265433
0.011815201 0.10495376 -0.18315874 0.3619261 0.20977171 0.26364556 -0.24710011 0.38663185

Conv2D;StatefulPartitionedCall/StatefulPartitionedCall/StatefulPartitionedCall/conv2d_2/StatefulPartitionedCall/Conv2D f4 [128, 3, 3, 64]
00000000: 1726 bcbd 62ef 32bd 4e71 bc3c 35d2 8abd
00000010: e5a8 e4bb d5f1 8a3c 6522 a53d f59f a93b
00000020: 5cad cbbc 6913 01bd edf7 923c 25e0 30bc
00000030: f0c5 e43c 69be 42bd 5b08 d03c fd5e 7ebd
00000040: 9423 333c a17d 583d 7225 4ebd 79aa 13bd
00000050: c4fe 173b 9393 003d 2cf3 a8bb f2ba 15bd
00000060: f263 ea3c 8b0f 9c3d 3d3a cbbd 4239 fdbc
00000070: ff2c 4d3c eb3f 34bd 4fec 18bd 361f 7fbd
00000080: 60bd e4bd ce0a 8e3d d4f9 e03c 114c 043c
00000090: ac69 913d b923 e6bc 5288 17bd 9f3a eabc
000000a0: ac11 e8bc 9fb3 223d cbb4 ffbc 7d0a e8bc
000000b0: 388a 09bc ce25 94bd 93fc 0a3d 40f9 cabd
000000c0: 5fb7 a93a b177 df3c 74ea cebc f805 6cbd
000000d0: 0ce2 35bd bd61 693c 3d49 a1bc d326 94bd
000000e0: 31da 38bd a5e6 8dbb e857 f1bd 8c30 00bd
000000f0: 26c2 a8bb 8691 0bbd 7b9f 633c a2ee b4bb
00000100: 2f71 3fbd 6550 e6bc fd7d 8abd 9067 b2bd
00000110: 6d5a 7dbd 4dee c0bc 9ea8 5ebd 8f6b 2c3c
00000120: 59a0 f2bc 38e5 3fbd 3573 4dbd 9a1b 42bd
00000130: 73f9 32bd 7c3a 66bd 842a 9e3d 5b23 593c
00000140: 573d 89bd 1d89 1cbd cc86 2bbd 5712 8ebc
00000150: d754 4ebc dd21 bbba 6a3c 3fbc 948f 75bd
00000160: 4166 04bd 91aa a73d 1ca4 c23c d3f3 5abc
00000170: d913 a3bc 4cff ac3c 8de9 a43c 279f b0bd
00000180: bcbe fdbc 61d2 5b3d 6711 60bd d5f2 72bd
00000190: bf4b 3d3c 3131 93bd 85cc a5bd 736c dd3c
000001a0: e20d 493c 2ff7 593d f22a 31bd 9ff9 94bc
000001b0: c50c c03c 08c0 8bbd 0bdb ed3c 4c57 fbbd
000001c0: d7aa 74bd 963b 7fbd efd0 99bc a6d2 bbbd
000001d0: 526a 90bd b6f4 d93b 601f 063c 36af 15bd
000001e0: 4a2b 903d 7efa 853a 00e3 183c e898 bc3c
000001f0: d4f1 b4bd ae05 143d 481c 4ebd cfb6 7bbd
00000200: 6b47 8e3b b43f 983c aea1 37bc b6e3 54bd
00000210: 3589 cfbb bf43 4b3d f474 463c fd95 613c
00000220: fd7d 9ebc f476 8fbd 92ef af3c e2b7 b5bc
00000230: 716a b63b 3318 1f3c 2563 cfbd aafd a2bc
00000240: 0832 05bd 53b4 86bd 6e44 ec3c a2ad 17bb
00000250: e32c 923d 55f2 4cbd 3b38 81bd 6a62 0ebd
00000260: cfe3 b1bd 68c6 69bd 34b1 77bd a3f5 433c
00000270: 87d7 c83c d7c4 d6bc 037c 06bc be23 963d
00000280: f7b1 d7bd 3c8a bf3c 6c22 0fbd b7b2 e23c
00000290: 90be 3dbd 464e 403c 4e7c 113d 4446 e9bd
000002a0: b98c 0fbd bdaa 343c 7a4b 88bd ed2d b33c
000002b0: 2313 1cbc bbf0 583c 0249 7a3c af08 a9bc
000002c0: 38d3 9cbd f126 36bd b380 9dbc 99c9 403c
000002d0: a0b5 13bd c9d0 20bd 87df 3ebd 7a0e 07bd
000002e0: dc50 01bb bb3f 5bbb d18e 803d c5da f93b
000002f0: 815d 8ebd 7d89 1b3c 38eb 133d 6e28 85bb
00000300: 2f8c a0bd 65cf 483d 5131 03bd 2d1d 97ba
00000310: 118e b4bd 5cb0 023d 71bb c03c e2e1 96bd
00000320: 65ae a43c 4cfa 293d fd57 f4bc c40f 93bd
00000330: b9af 46bd 6c90 3abd f5d7 c5bb f227 46bc
00000340: 1294 7c3c aa9e ab3d c3ff 75bd 9df7 a53c
00000350: b59e 01bd 7b3e 023d f366 4cbd 5a27 573c
00000360: a959 56bb d80e 983d 0398 33bd c48f 51bd
00000370: c8b3 27bd f87f 243d 8ac2 79bd c90c acbd
00000380: 742a 27bc e82a d73c bb23 37bd 7144 f2bc
00000390: 3b78 85bc 60d5 2f3c d8de 173d 5157 88bd
000003a0: 646f e3b9 b2d6 c7bc 69de d03b 076d a5bd
000003b0: 339e 773d 05b3 bfbd 70f8 6bbc 7987 b2bd
000003c0: 24d1 90bd 5046 823d af89 74bc 0996 7bbd
000003d0: a247 93bc 6f4c 843d 89df be3c 49ff a7bd
000003e0: 9c70 413d b5ef 5ebb cd3d 513c 82ed f23c
000003f0: e272 593d b00a 8dbd e8f4 c9bc 3307 d33b
-0.091869526 -0.043685324 0.023003247 -0.06778375 -0.0069781416 0.016961018 0.08063201 0.005176539
-0.024862938 -0.03151265 0.017940486 -0.010795628 0.027926415 -0.04754487 0.02539461 -0.062102307
0.010933775 0.052854184 -0.05032868 -0.036051247 0.0023192624 0.031390738 -0.0051559415 -0.036555238
0.02861211 0.07620152 -0.099232174 -0.030911092 0.012522935 -0.04400627 -0.037334736 -0.062285624
-0.11168933 0.069356546 0.027462877 0.008074776 0.071002334 -0.028093206 -0.03699524 -0.028592406
-0.02832874 0.03972208 -0.031214138 -0.028325314 -0.00839477 -0.07233773 0.03393228 -0.09910822
0.0012948326 0.027278753 -0.02525828 -0.05762288 -0.04440503 0.014244494 -0.019688243 -0.07233968
-0.04512996 -0.0043304735 -0.11784345 -0.031296298 -0.0051500974 -0.03407433 0.013893004 -0.0055216113
-0.0467388 -0.028114507 -0.067623116 -0.08711159 -0.061853815 -0.02355113 -0.054360025 0.010523691
-0.029617475 -0.04684946 -0.050158698 -0.047389604 -0.043694925 -0.05620812 0.07722953 0.013253058
-0.06701153 -0.0382167 -0.0418766 -0.01734273 -0.01259347 -0.001427706 -0.011672119 -0.05995138
-0.03232408 0.0818683 0.023759894 -0.013363796 -0.019906925 0.021117829 0.020130897 -0.08624106
-0.030974738 0.05366743 -0.054704096 -0.059313614 0.011553704 -0.07187117 -0.0809565 0.027029252
0.012271376 0.05321425 -0.043253846 -0.018185435 0.023443589 -0.068237364 0.029035112 -0.1227251
-0.059733238 -0.062312685 -0.018776385 -0.091710374 -0.07051529 0.0066514863 0.008186191 -0.036544047
0.07039507 0.0010221747 0.009331465 0.02302213 -0.088351876 0.03613823 -0.05031994 -0.061453637
0.00434201 0.018585064 -0.011207981 -0.051974975 -0.006333495 0.049625155 0.012112845 0.01376867
-0.019347185 -0.070051104 0.02147654 -0.022182409 0.005566888 0.009710359 -0.10126332 -0.019896347
-0.032518417 -0.06577363 0.028841224 -0.0023144265 0.07137468 -0.050035793 -0.06309553 -0.034761824
-0.08686029 -0.05707398 -0.06047173 0.01196042 0.024516834 -0.026216907 -0.008208278 0.07331036
-0.10531991 0.023381345 -0.034944937 0.027673109 -0.046324313 0.011737412 0.035518937 -0.11390355
-0.035046313 0.011027035 -0.06655021 0.021872485 -0.009526047 0.013240988 0.0152761955 -0.020634023
-0.07657474 -0.04447073 -0.019226408 0.011766815 -0.036061883 -0.039261613 -0.04659989 -0.03297279
-0.0019732034 -0.0033454734 0.0627724 0.0076249563 -0.06951428 0.009493229 0.036112994 -0.0040636575
-0.07839238 0.04902591 -0.032029454 -0.0011529081 -0.088161595 0.03190647 0.023526879 -0.073673025
0.020102689 0.041498467 -0.029827112 -0.071807414 -0.048507426 -0.045547888 -0.006037707 -0.012094485
0.015416162 0.08379872 -0.060058367 0.020259673 -0.031645495 0.031797867 -0.049902868 0.013131941
-0.003270725 0.07424706 -0.04384614 -0.051162496 -0.040942937 0.040161103 -0.060976543 -0.08400876
-0.010202993 0.026265576 -0.04471181 -0.029573651 -0.016292682 0.010732025 0.037077755 -0.06657279
-0.00043379806 -0.024394367 0.0063741696 -0.08077436 0.060453605 -0.09360317 -0.014402494 -0.087172456
-0.070711404 0.06361067 -0.014925404 -0.06142238 -0.017978493 0.06459891 0.02329995 -0.08202989
0.047226533 -0.0034017388 0.012771082 0.029654268 0.053088076 -0.06886804 -0.024652913 0.006440067
